morse-stf/output/model_v.npy (npy, 928 bytes, 1 tensors)

array f8 [10, 10]
-0.04628089445111202 -0.49694903147417113 -0.056173571688471265 -0.0324964241869346 -0.49667721016852323 -0.046280894490810146 -0.49694903150869085 -0.05617357213165239
-0.03249642411658296 -0.4966772102533335 0.07097676416954604 -0.041887556698633 0.7007349827678214 0.013051690349665704 -0.04480939770039112 0.07097674397809761
-0.04188756908150675 0.7007349654379188 0.013051711287024202 -0.0448093867384253 0.7009619862370768 -0.02482582712815938 -0.07531514758676504 0.03453494733638972
-0.03421849949858543 0.7009620413297972 -0.02482588028725711 -0.07531512249506224 0.03453495015460319 -0.034218331791533774 0.037641603049694244 0.02941859971322239
0.01184109821998625 -0.7052919396484495 0.011864139718716556 0.03764164879088461 0.02941873202299148 0.01184111971573922 -0.7052918837338032 0.01186411669416768
-0.0074657733908321255 0.49980542883366563 -0.0015643274686658014 0.012011785088969402 -0.4999918137149281 -0.007466395754782697 0.49980511785040854 -0.001562626381274617
0.012012547685374563 -0.49999260559987013 -0.3081547466025029 0.36692664591390184 0.01412421406968304 -0.37691812340562303 0.3579646814851586 0.308154785688115
-0.36692711547009565 -0.014124219458649452 0.3769181059769071 -0.35796421343623097 -0.22226010154755282 -0.25003537121714436 -0.4026297619776337 -0.36547332657863796
-0.3039757225630036 0.22226001907788384 0.2500348632879214 0.4026297762046072 0.3654734024327444 0.3039762314882616 -0.47627818990657345 -0.19665920972972384
0.4521978263921078 0.06088603503554286 -0.1621550200834487 0.4762781245751227 0.19666051045209432 -0.45219782123530583 -0.060885962176670416 0.16215371970210232
-0.2427423483265885 0.43938792371763535 -0.2167375424576665 0.3343077496764355 -0.29879368370266646 0.24274222431678577 -0.43938777866398665 0.21673756710695716
-0.33430784835712934 0.29879355351300607 -0.2643414101300699 -0.2666653477594693 -0.2936523938742071 0.3299896439955534 0.40483147162548244 0.264341500727472
0.26666501897795397 0.2936524197510112 -0.3299895839945952 -0.4048311582376467
00000000: 2bbe 3120 21b2 a7bf d877 7d4f 03ce dfbf
00000010: a15d 9a4a c8c2 acbf 085a 3d0e 5fa3 a0bf
00000020: abe8 9535 8fc9 dfbf 3a0a 8920 21b2 a7bf
00000030: f4f4 864f 03ce dfbf 6cee 684e c8c2 acbf
00000040: 94a5 a20d 5fa3 a0bf a938 ad35 8fc9 dfbf
00000050: b254 e280 882b b23f 038c 422c 4972 a5bf
00000060: 4fd4 44c5 6b6c e63f c8b6 ac39 d8ba 8a3f
00000070: 3a70 5ae3 41f1 a6bf 3899 292a 882b b23f
00000080: 37c6 a096 4972 a5bf 9106 f7bb 6b6c e63f
00000090: bfaa 1309 dbba 8a3f 14d2 3085 41f1 a6bf
000000a0: 0c14 d4d4 476e e63f bc45 720e f16b 99bf
000000b0: 4f50 c77f da47 b3bf 0efc c18a 90ae a13f
000000c0: db7b 8750 1685 a1bf d2f6 67f2 476e e63f
000000d0: ea74 b69f f46b 99bf d9b1 0214 da47 b3bf
000000e0: 334d f7a2 90ae a13f f0c6 efaf 1085 a1bf
000000f0: e488 229c c245 a33f 894d a6ce e81f 9e3f
00000100: c219 d44c 2540 883f 1785 dd66 c091 e6bf
00000110: b14d b2e0 394c 883f e079 0c25 c445 a33f
00000120: 3ad2 b6af f11f 9e3f 4bbe 6a2f 2840 883f
00000130: 5fab d848 c091 e6bf d23a 94c9 364c 883f
00000140: 20f8 d848 6e94 7ebf de0b cde8 cffc df3f
00000150: f0a2 5cd4 43a1 59bf 8a58 fd80 a299 883f
00000160: 0318 0baa ddff dfbf 0260 5f59 1595 7ebf
00000170: 9b9e e29a cefc df3f b02e 054d 219a 59bf
00000180: 9943 9adb 089a 883f eac4 52fc e0ff dfbf
00000190: 67f4 b0af ceb8 d3bf a9cb 0ee6 b97b d73f
000001a0: d482 16ec 27ed 8c3f 7aff 5231 6d1f d8bf
000001b0: 1a84 06b2 e4e8 d63f d7b9 a8d9 ceb8 d33f
000001c0: 576b 3dde bb7b d7bf 645c 40a5 28ed 8cbf
000001d0: a03a 9c1e 6d1f d83f da34 76bb e2e8 d6bf
000001e0: bc1a addd 0473 ccbf 7c22 8e5b 9400 d0bf
000001f0: dbc5 059f afc4 d9bf 06cc 4d3c ea63 d7bf
00000200: 91e8 cb96 5674 d3bf a8ec 922c 0473 cc3f
00000210: ef9c 2b3a 9200 d03f 1d74 4cae afc4 d93f
00000220: 3c6a c08d ea63 d73f da37 40b9 5874 d33f
00000230: 8a98 5c84 577b debf 0489 1f05 212c c9bf
00000240: f449 eb26 cff0 dc3f 3983 8552 742c af3f
00000250: 5700 12e6 7ec1 c4bf 656c 363e 577b de3f
00000260: 7c38 67ee 2b2c c93f 46cc 6121 cff0 dcbf
00000270: 6028 abe0 712c afbf bfcb 85fd 73c1 c43f
00000280: 395e b567 2e12 cfbf 3af9 a786 ee1e dc3f
00000290: 3fe6 5548 0ebe cbbf a037 ea54 4c65 d53f
000002a0: ca46 f08a 6f1f d3bf 0e42 665d 2d12 cf3f
000002b0: 21ee e7ea ed1e dcbf 81fd 447d 0ebe cb3f
000002c0: 205c dfbe 4c65 d5bf e203 26ff 6e1f d33f
000002d0: d92d df3b f8ea d0bf e79d e688 0b11 d1bf
000002e0: b53c 0569 33cb d2bf 84b1 3ee2 8c1e d53f
000002f0: d178 c142 c2e8 d93f 4267 269d f8ea d03f
00000300: 8fd7 df27 0a11 d13f ea32 ce84 33cb d23f
00000310: 70c1 d1a1 8c1e d5bf 6014 42f2 c0e8 d9bf
